…
  return ufunc.reduce(obj, axis, dtype, out, **passkwargs)
/opt/conda/envs/python35-paddle120-env/lib/python3.7/site-packages/paddle/nn/layer/norm.py:648: UserWarning: When training, we now always track global mean and variance.
  "When training, we now always track global mean and variance.")

-------------------------------------------------------------------------------------------------------
 Layer (type)       Input Shape                        Output Shape                       Param #    
=======================================================================================================
   Conv2D-1      [[32, 1, 32, 500]]                 [32, 64, 32, 500]                       640      
    ReLU-1      [[32, 64, 32, 500]]                 [32, 64, 32, 500]                        0       
  MaxPool2D-1   [[32, 64, 32, 500]]                 [32, 64, 16, 250]                        0       
   Conv2D-2     [[32, 64, 16, 250]]                 [32, 128, 16, 250]                    73,856     
    ReLU-2      [[32, 128, 16, 250]]                [32, 128, 16, 250]                       0       
  MaxPool2D-2   [[32, 128, 16, 250]]                [32, 128, 8, 125]                        0       
   Conv2D-3     [[32, 128, 8, 125]]                 [32, 256, 8, 125]                     295,168    
 BatchNorm2D-1  [[32, 256, 8, 125]]                 [32, 256, 8, 125]                      1,024     
    ReLU-3      [[32, 256, 8, 125]]                 [32, 256, 8, 125]                        0       
   Conv2D-4     [[32, 256, 8, 125]]                 [32, 256, 8, 125]                     590,080    
    ReLU-4      [[32, 256, 8, 125]]                 [32, 256, 8, 125]                        0       
  MaxPool2D-3   [[32, 256, 8, 125]]                 [32, 256, 4, 126]                        0       
   Conv2D-5     [[32, 256, 4, 126]]                 [32, 512, 4, 126]                    1,180,160   
 BatchNorm2D-2  [[32, 512, 4, 126]]                 [32, 512, 4, 126]                      2,048     
    ReLU-5      [[32, 512, 4, 126]]                 [32, 512, 4, 126]                        0       
   Conv2D-6     [[32, 512, 4, 126]]                 [32, 512, 4, 126]                    2,359,808   
    ReLU-6      [[32, 512, 4, 126]]                 [32, 512, 4, 126]                        0       
  MaxPool2D-4   [[32, 512, 4, 126]]                 [32, 512, 2, 127]                        0       
   Conv2D-7     [[32, 512, 2, 127]]                 [32, 512, 1, 126]                    1,049,088   
 BatchNorm2D-3  [[32, 512, 1, 126]]                 [32, 512, 1, 126]                      2,048     
    ReLU-7      [[32, 512, 1, 126]]                 [32, 512, 1, 126]                        0       
    LSTM-1        [[126, 32, 512]]   [[126, 32, 512], [[2, 126, 256], [2, 126, 256]]]    1,576,960   
   Linear-1        [[4032, 512]]                       [4032, 256]                        131,328    
    LSTM-2        [[126, 32, 256]]   [[126, 32, 512], [[2, 126, 256], [2, 126, 256]]]    1,052,672   
   Linear-2        [[4032, 512]]                        [4032, 21]                        10,773     
=======================================================================================================
Total params: 8,325,653
Trainable params: 8,320,533
Non-trainable params: 5,120
-------------------------------------------------------------------------------------------------------
Input size (MB): 1.95
Forward/backward pass size (MB): 65125.77
Params size (MB): 31.76
Estimated Total Size (MB): 65159.48
…
